missing_data/glm_theta_1000.npy (npy, 40128 bytes, 1 tensors)

array f4 [1000, 10]
00000000: 8dc5 7b3e 1d03 a4bf 9c5d f9bf d1c1 bbbf
00000010: a20a 343f 9b64 ec3f 9e49 933f 1242 32bf
00000020: c5b4 f2bf bda1 fabf ecd6 4e3f 2ee6 4abd
00000030: 42d4 11bc 5db3 383f 3951 1540 f475 5a40
00000040: f15d 1440 c8ac 9bbe 38d4 b5bf c218 8bbf
00000050: 279d 54be 8433 3abf 737f 03c0 4d09 0cc0
00000060: 2e08 18c0 d72d 98bf 2730 16bf 921a a0be
00000070: bc76 d2be 1280 933e d5db ae3e d27a 173f
00000080: 61c9 80bf 052d 58bf 9660 1fbf 119b 373f
00000090: 365a cd3f 6472 ed3f 8a55 be3f b05d a43f
000000a0: 6479 49bf 1023 93bf 9a82 3cbf 945d 9ebe
000000b0: 8e7b b3be a08f 93bf f60e 4cbf 741b 0dbf
000000c0: bff9 a8be cc14 b5be 5bad 2240 1021 3dbf
000000d0: 4721 d1bf bf60 d5bf ec2c a5bf fcfd 99bf
000000e0: 4a37 6abe 13fd f43f b927 0940 ebc2 2440
000000f0: 87f8 4ac0 d2b6 55be c8eb 333e 4b40 c23f
00000100: 60c2 1d40 fc31 2340 afbf a93f b2fc c23e
00000110: 8f84 18bf 26e7 12bf 8041 2abf 82eb e53c
00000120: 28cb 363f e8e8 fc3e 3bab dcbe 5498 b5bf
00000130: 4ef1 a9bf f385 6dbf baf0 52bf d80d 32bf
00000140: 5c5c acbf 28a2 31bf 887c 6cbf 7735 62bf
00000150: afea 893e 5d02 2f3f 06f3 db3f 93a4 1340
00000160: 1808 b03f 031e 1b3f 9805 ac3e 8e12 c33f
00000170: 0b46 6740 69e7 9d40 d858 6240 df64 123f
00000180: 894f 33bf 130e d5bf 4a34 f6bf bb80 d1bf
00000190: 95ed c33e 8389 9abf f019 b5bf bfb7 2ebf
000001a0: 4eb9 fbbe 4a66 863f 76df b13f ae19 9a3f
000001b0: 99ac 133f bd6d 5d3e 98d5 0a3f 9aae 4d3f
000001c0: f444 9e3f e712 1f3e 9b8e ae3e b300 343f
000001d0: b665 86bf 0504 f4bf 12ac c2bf 25e3 98be
000001e0: 5c44 fd3e dffe cc3c d0d1 6f3d 7c1c c63e
000001f0: 6766 503f c489 0b3e 27a6 a9be c335 1abe
00000200: 6538 083e 06ea 023f 4685 9dbf 8724 35bf
00000210: 3200 03c0 001b 7bc0 2013 8ac0 0a74 59c0
00000220: 56a6 d1bf c8d5 09be 1112 a63f 3092 ae3f
00000230: 704a 5340 7594 4d3f 03bf 9d3f 7f42 2a3e
00000240: 7ce1 edbf f549 37c0 3c84 40c0 c489 c5bf
00000250: 55f8 173e e77c 0140 bc71 623e b1be bcbc
00000260: 42e2 883e 90e3 023f 08ed 95bd c88f 8dbf
00000270: 863d 2dc0 a9c3 60c0 f8b0 02c0 597f 26bf
00000280: dde3 0bbf 742f aebd 37d1 703f 33d8 f53e
00000290: dd7f 44bf 6b52 b7bf 28d8 e5bf 55b4 d3be
000002a0: 89f5 4b3d c31a f63c c435 a03e 6e2f 97be
000002b0: fd5f 7c3e f242 6abc 59d8 853c f760 c33d
000002c0: a676 abbe d2c2 61bf 1c5d a9bf d83b ccbf
000002d0: 102a 643f 50f4 97be a9b3 6bbe 5418 dabe
000002e0: 73b1 10be 8bb5 2e3f 51a7 153f c31a 843f
000002f0: 6eff 933f 9811 833e 79e0 1240 ec35 d1bf
00000300: bdad 12c0 b3b1 acbf 5a54 7e3e 8631 9f3f
00000310: 8cc4 a33e c23d a6bd 4f26 85bf c3f6 c5bf
00000320: 7d67 4f3f e25c 2d3f 9a2f 1240 e7c9 2e40
00000330: 6c05 973f 3037 27bc c8db 29bc 2b5e d03e
00000340: 2061 d3be bf79 f8be 3ed3 da3e 75c5 fcbe
00000350: cb2f cbbf 2f70 cfbf 0f09 3bbf f285 1a3f
00000360: 4817 1740 419b 1640 e9c0 523f 7cbe b0be
00000370: ca30 84bf b5f2 b63e d931 673f eb08 3140
00000380: f05b 4c40 d406 d73f de7a 56bf 7124 dcbf
00000390: afa2 a6bf 6577 abbe 34d6 92bf bee1 f83d
000003a0: dd5d 75be 621c c43f 2a5f 0840 0399 af3f
000003b0: 3b71 eb3e f462 aebe cc0f 23bf f34c b5bf
000003c0: f42f 8d3f c078 4d3f 5ecf 953f 9dbf a73e
000003d0: aeba 3b3d 2e4b 813f 641a 6a3f fb78 e53e
000003e0: 3276 6fbf 39d3 54bf 63c6 3940 6072 7b3f
000003f0: f689 b03f 6d33 873f 9fe8 dbbd 3cad 9abc
0.24587078 -1.281345 -1.9481692 -1.4668523 0.70328724 1.8468202 1.1506841 -0.69632065
-1.8961416 -1.9580609 0.80796695 -0.049535923 -0.008900704 0.72148687 2.3330824 3.4134493
2.3182337 -0.3040526 -1.4205389 -1.086693 -0.20763074 -0.72734857 -2.054654 -2.1880677
-2.3754992 -1.1888989 -0.58667225 -0.31270272 -0.41106212 0.28808647 0.34152094 0.59171784
-1.0061456 -0.84443694 -0.62256753 0.7172099 1.6043155 1.8550534 1.4869854 1.2841091
-0.7870085 -1.1495075 -0.7363678 -0.3093077 -0.35055202 -1.1528206 -0.7971033 -0.55120015
-0.3300304 -0.3536743 2.5418308 -0.73878574 -1.633828 -1.667015 -1.2904334 -1.2030635
-0.22872654 1.9139732 2.1430495 2.5743968 -3.171419 -0.20870522 0.17570412 1.5175871
2.4649887 2.5499258 1.3261622 0.38083416 -0.5957727 -0.57383955 -0.66506195 0.0280664
0.7140374 0.49396443 -0.43099388 -1.4187112 -1.3276765 -0.92782515 -0.8239857 -0.69552374
-1.3465686 -0.69388056 -0.9237752 -0.8836283 0.26936862 0.6836298 1.718354 2.3069198
1.375247 0.6059267 0.33598018 1.5240037 3.61365 4.9344983 3.5366726 0.5718517
-0.70043236 -1.664492 -1.9234707 -1.636741 0.38267198 -1.2073215 -1.414854 -0.68249124
-0.49164814 1.0499966 1.389632 1.2039087 0.5768524 0.21623893 0.5423217 0.80344546
1.2364793 0.15534554 0.34093174 0.70313567 -1.049979 -1.9063727 -1.5208762 -0.29860798
0.49466217 0.025023876 0.058549702 0.38693607 0.81406254 0.13626772 -0.33134577 -0.15059571
0.13302763 0.5113834 -1.2306297 -0.7075886 -2.046887 -3.923523 -4.3148346 -3.3977075
-1.6378887 -0.13460457 1.2974263 1.3638363 3.3014183 0.8030465 1.2323917 0.16626929
-1.8584437 -2.863889 -3.008071 -1.5432668 0.14840825 2.0232484 0.22113699 -0.023040147
0.2673512 0.5112848 -0.07320601 -1.1059504 -2.70688 -3.5119421 -2.0420513 -0.6503807
-0.54644567 -0.08505145 0.94069237 0.4801651 -0.76757604 -1.4322027 -1.7956591 -0.4134852
0.049794707 0.030042058 0.3129102 -0.29528373 0.24645992 -0.014298188 0.016338514 0.09539979
-0.3348896 -0.881879 -1.323154 -1.5955763 0.8912668 -0.29678583 -0.23017754 -0.42596686
-0.14130192 0.6824576 0.5845843 1.0320667 1.1562326 0.2559936 2.2949507 -1.6344581
-2.2918541 -1.349173 0.24836865 1.2436988 0.3198589 -0.08117248 -1.0402316 -1.5465931
0.81017286 0.6771985 2.2841554 2.7310731 1.179853 -0.010206029 -0.010367341 0.40696844
-0.41285038 -0.48530385 0.4273929 -0.49369398 -1.587396 -1.6206111 -0.730607 0.60360634
2.360796 2.353226 0.8232561 -0.34520328 -1.0327389 0.35732046 0.90310436 2.7661693
3.1931114 1.6798959 -0.8378123 -1.7198621 -1.3018397 -0.33489528 -1.147162 0.12152432
-0.23961587 1.5321162 2.1308084 1.371857 0.45984825 -0.3405987 -0.6369598 -1.4164108
1.1030259 0.80262375 1.1703908 0.32763377 0.04583233 1.0101068 0.9144652 0.44818863
-0.93539727 -0.831348 2.9027336 0.982214 1.3792102 1.0562569 -0.10737728 -0.018881433
