missing_data/glu_theta_1000.npy (npy, 40128 bytes, 1 tensors)

array f4 [1000, 10]
0.8912716 0.7017108 -0.97587645 -0.6494322 0.94539523 -0.7809689 0.75424063 0.13071394
-0.84311867 0.023030162 0.9071362 0.08082092 0.74242556 -0.9964777 -0.7271037 -0.18768513
-0.20928097 -0.15080357 -0.033291936 0.6786846 0.2386899 0.8038914 -0.4462278 -0.19539952
0.0302732 0.4377861 -0.69173396 -0.0025349855 -0.18760216 0.735394 0.62759507 0.4539888
-0.35734427 -0.080558896 0.24024093 -0.2869588 0.6395514 -0.09905875 -0.4535141 -0.012478113
0.42204654 0.44272625 -0.44794273 -0.71746385 0.5586095 -0.26765537 0.23412502 0.8744116
0.9715171 -0.76778054 0.47186708 0.20407438 -0.8442633 -0.90125537 -0.39281392 -0.86810875
-0.6485753 -0.6972555 0.7742634 -0.2037561 0.37342334 0.28176618 -0.26630092 0.8019422
0.2075746 0.10172343 -0.027071 -0.7526479 -0.39514017 0.91547 0.25239432 -0.8841176
-0.06292522 -0.6404551 0.514187 -0.6767746 0.70838404 0.05193925 0.28701615 0.73834515
0.80443287 -0.123931766 -0.6728432 -0.9894428 0.21193182 0.019601941 0.68517375 0.060961127
0.5138376 -0.5511174 -0.14515197 -0.3239336 0.42777753 0.15865302 -0.5930697 0.9299364
-0.26092649 0.7874006 0.1525526 0.012322187 -0.59697425 -0.93905056 -0.57877374 0.49061334
0.4488623 -0.9599818 -0.51557994 0.8645605 0.5235548 -0.45062518 0.5806978 0.18000507
0.29857838 -0.20903075 -0.8148073 0.869944 0.793162 0.17694676 -0.86933136 0.3649429
0.66189003 0.58900034 0.7417923 0.30300128 -0.7894691 -0.6202183 -0.35281992 0.65604746
-0.1406213 0.7234138 -0.20107055 -0.8162359 0.96242905 -0.41077292 -0.058710575 0.95049226
-0.86396444 0.2905705 -0.32931352 -0.5773939 -0.0013782978 0.64631176 -0.3869319 0.7060087
-0.0522151 -0.81411254 -0.4153608 -0.9205886 0.99330306 0.6580398 -0.462492 0.5735731
0.7810472 -0.32304585 0.37165487 -0.11269486 0.55077744 -0.7006831 -0.13775587 -0.668782
0.6941006 0.71661913 0.12165928 0.72437274 0.044722915 -0.81944597 0.97754574 -0.5338112
0.33270907 -0.21808147 -0.13717186 0.43299985 -0.8813784 0.94694877 -0.2651149 0.22801673
0.48777747 0.75741255 0.37978864 -0.50874746 0.58633816 -0.9852148 -0.78045833 -0.1730169
-0.09606409 0.41981936 -0.371637 0.067326665 -0.58223534 0.78670394 -0.003845334 0.6936308
-0.40495276 0.13438976 -0.931033 0.77465403 -0.33582532 0.69826627 -0.27009118 -0.9574301
0.65413785 -0.40572667 -0.6604489 0.5605061 0.062323928 -0.7293662 0.8949653 0.43821
0.45853782 0.86100805 0.32335603 0.6429838 0.66485894 0.80762875 0.68218887 0.17709243
0.25300503 0.78554845 0.4755391 -0.41555858 0.86357415 0.12300384 -0.8711897 -0.718397
-0.46381974 -0.77174616 -0.713189 -0.17838705 -0.35581768 -0.7146201 0.064017534 -0.28198993
-0.95963144 -0.89854133 -0.2989664 -0.48915482 -0.8609618 -0.16400647 -0.46029472 0.867149
-0.024051666 0.9412428 -0.7191305 0.4462762 0.69784486 -0.95054245 -0.47921145 0.98006845
0.9257864 0.9449303 0.7770492 0.08724165 -0.18470335 -0.1834135 -0.13238478 0.78492427
00000000: 602a 643f 52a3 333f 0ad3 79bf 3041 26bf
00000010: 6c05 723f 94ed 47bf ea15 413f e0d9 053e
00000020: a0d6 57bf c0a9 bc3c 143a 683f 7085 a53d
00000030: 9a0f 3e3f 2a19 7fbf 7823 3abf 8830 40be
00000040: c04d 56be 406c 1abe 205d 08bd 46be 2d3f
00000050: 206b 743e d4cb 4d3f f877 e4be d016 48be
00000060: 80ff f73c 8025 e03e 7a15 31bf 0022 26bb
00000070: c81a 40be c842 3c3f 12aa 203f 3871 e83e
00000080: d4f5 b6be 10fc a4bd b801 763e 44ec 92be
00000090: a4b9 233f 50df cabd 0033 e8be 0071 4cbc
000000a0: 7c16 d83e 04ad e23e c058 e5be b6ab 37bf
000000b0: 0801 0f3f 200a 89be 78be 6f3e 70d9 5f3f
000000c0: 58b5 783f 448d 44bf 9098 f13e e0f8 503e
000000d0: a421 58bf acb8 66bf e81e c9be 603c 5ebf
000000e0: 0809 26bf 567f 32bf 2036 463f 70a5 50be
000000f0: 5831 bf3e a843 903e 9858 88be 164c 4d3f
00000100: 708e 543e 6054 d03d 00c4 ddbc 88ad 40bf
00000110: d04f cabe 3e5c 6a3f d439 813e 8855 62bf
00000120: f0de 80bd def4 23bf c2a1 033f 1a41 2dbf
00000130: a858 353f 40be 543d c8f3 923e 3004 3d3f
00000140: 50ef 4d3f f0cf fdbd 743f 2cbf 204c 7dbf
00000150: a804 593e 4094 a03c 8c67 2f3f 60b2 793d
00000160: dc8a 033f 0816 0dbf b8a2 14be a0da a5be
00000170: a805 db3e f075 223e 6ad3 17bf 5010 6e3f
00000180: 2898 85be 1693 493f c036 1c3e 00e3 493c
00000190: 4ed3 18bf 9e65 70bf 842a 14bf ac31 fb3e
000001a0: 48d1 e53e 5ec1 75bf 0cfd 03bf d653 5d3f
000001b0: b007 063f 58b8 e6be 9ca8 143f 4053 383e
000001c0: 44df 983e 280c 56be 3697 50bf a6b4 5e3f
000001d0: aa0c 4b3f 8831 353e 808c 5ebf ccd9 ba3e
000001e0: a071 293f bac8 163f 1ae6 3d3f fc22 9b3e
000001f0: a61a 4abf a0c6 1ebf d0a4 b4be baf2 273f
00000200: 08ff 0fbe a631 393f 70e5 4dbe d6f4 50bf
00000210: c061 763f d450 d2be 807a 70bd 7653 733f
00000220: c62c 5dbf a8c5 943e c89b a8be 16d0 13bf
00000230: 00a8 b4ba b074 253f f01b c6be fcbc 343f
00000240: 80df 55bd ae69 50bf 2caa d4be b2ab 6bbf
00000250: 1c49 7e3f 4c75 283f c0cb ecbe b0d5 123f
00000260: b6f2 473f 4466 a5be 8c49 be3e 90cc e6bd
00000270: c0ff 0c3f f85f 33bf e00f 0dbe 4c35 2bbf
00000280: 94b0 313f 5a74 373f 8028 f93d 7e70 393f
00000290: 602f 373d 36c7 51bf 7040 7a3f daa7 08bf
000002a0: d858 aa3e c050 5fbe c876 0cbe 28b2 dd3e
000002b0: 04a2 61bf 3c6b 723f 24bd 87be 387d 693e
000002c0: f8bd f93e cae5 413f a873 c23e 463d 02bf
000002d0: 421a 163f 0a37 7cbf 1ecc 47bf 582b 31be
000002e0: 40bd c4bd 90f2 d63e 3447 bebe 90e2 893d
000002f0: 600d 15bf 6e65 493f 0002 7cbb ca91 313f
00000300: f855 cfbe 789d 093e 2e58 6ebf ba4f 463f
00000310: 4cf1 abbe 94c1 323f 6449 8abe 241a 75bf
00000320: 9475 273f 68bb cfbe 2e13 29bf 547d 0f3f
00000330: 6047 7f3d beb7 3abf 721c 653f 105d e03e
00000340: 78c5 ea3e 066b 5c3f ec8e a53e 969a 243f
00000350: 3234 2a3f c2c0 4e3f eea3 2e3f b857 353e
00000360: e089 813e b419 493f dc79 f33e 18c4 d4be
00000370: 3213 5d3f 70e9 fb3d 4a06 5fbf dee8 37bf
00000380: c879 edbe 2891 45bf 8e93 36bf 18ab 36be
00000390: bc2d b6be 58f1 36bf a01b 833d fc60 90be
000003a0: 68aa 75bf ce06 66bf 2012 99be 8072 fabe
000003b0: fe67 5cbf 50f1 27be c0ab ebbe 7afd 5d3f
000003c0: 0008 c5bc 4af5 703f f018 38bf 507e e43e
000003d0: f6a5 323f c056 73bf 345b f5be c4e5 7a3f
000003e0: 5600 6d3f f4e6 713f b2ec 463f c0ab b23d
000003f0: e022 3dbe c0d0 3bbe e08f 07be ccf0 483f
